…
ite-packages/tcbench/libtcdatasets/datasets/ucdavis-icdm19/preprocessed/imc23/train_split_0.parquet\nno augmentation\nno augmentation\ndataset samples count\n               train  val\napp                      \ngoogle-doc        80   20\ngoogle-drive      80   20\ngoogle-music      80   20\ngoogle-search     80   20\nyoutube           80   20\n\nnetwork architecture\n----------------------------------------------------------------\n        Layer (type)               Output Shape         Param #\n================================================================\n            Conv2d-1            [-1, 6, 28, 28]             156\n              ReLU-2            [-1, 6, 28, 28]               0\n         MaxPool2d-3            [-1, 6, 14, 14]               0\n            Conv2d-4           [-1, 16, 10, 10]           2,416\n              ReLU-5           [-1, 16, 10, 10]               0\n         Dropout2d-6           [-1, 16, 10, 10]               0\n         MaxPool2d-7             [-1, 16, 5, 5]               0\n           Flatten-8                  [-1, 400]               0\n            Linear-9                  [-1, 120]          48,120\n             ReLU-10                  [-1, 120]               0\n           Linear-11                   [-1, 84]          10,164\n             ReLU-12                   [-1, 84]               0\n        Dropout1d-13                   [-1, 84]               0\n           Linear-14                    [-1, 5]             425\n================================================================\nTotal params: 61,281\nTrainable params: 61,281\nNon-trainable params: 0\n----------------------------------------------------------------\nInput size (MB): 0.00\nForward/backward pass size (MB): 0.13\nParams size (MB): 0.23\nEstimated Total Size (MB): 0.36\n----------------------------------------------------------------\n\n---\nW
…
lib/python3.10/site-packages/tcbench/libtcdatasets/datasets/ucdavis-icdm19/preprocessed/imc23/train_split_0.parquet\ndataset samples count\n               train  val\napp                      \ngoogle-doc        80   20\ngoogle-drive      80   20\ngoogle-music      80   20\ngoogle-search     80   20\nyoutube           80   20\n\n==== network adapted for pretrain ====\n----------------------------------------------------------------\n        Layer (type)               Output Shape         Param #\n================================================================\n            Conv2d-1            [-1, 6, 28, 28]             156\n              ReLU-2            [-1, 6, 28, 28]               0\n         MaxPool2d-3            [-1, 6, 14, 14]               0\n            Conv2d-4           [-1, 16, 10, 10]           2,416\n              ReLU-5           [-1, 16, 10, 10]               0\n          Identity-6           [-1, 16, 10, 10]               0\n         MaxPool2d-7             [-1, 16, 5, 5]               0\n           Flatten-8                  [-1, 400]               0\n            Linear-9                  [-1, 120]          48,120\n             ReLU-10                  [-1, 120]               0\n           Linear-11                  [-1, 120]          14,520\n             ReLU-12                  [-1, 120]               0\n         Identity-13                  [-1, 120]               0\n           Linear-14                   [-1, 30]           3,630\n================================================================\nTotal params: 68,842\nTrainable params: 68,842\nNon-trainable params: 0\n----------------------------------------------------------------\nInput size (MB): 0.00\nForward/backward pass size (MB): 0.13\nParams size (MB): 0.26\nEstimated Total Size (MB): 0.39\n----------------------------------------------------------------\n\nepoch:
…
20            10\ngoogle-search           5           10           20            10\nyoutube                10           10           20            10\n\n--- finetune (train) on human ---\napp\ngoogle-doc       10\ngoogle-drive     10\ngoogle-music     10\ngoogle-search    10\nyoutube          10\nName: count, dtype: int64\n\n==== network adapted for fine-tuning ====\n----------------------------------------------------------------\n        Layer (type)               Output Shape         Param #\n================================================================\n            Conv2d-1            [-1, 6, 28, 28]             156\n              ReLU-2            [-1, 6, 28, 28]               0\n         MaxPool2d-3            [-1, 6, 14, 14]               0\n            Conv2d-4           [-1, 16, 10, 10]           2,416\n              ReLU-5           [-1, 16, 10, 10]               0\n          Identity-6           [-1, 16, 10, 10]               0\n         MaxPool2d-7             [-1, 16, 5, 5]               0\n           Flatten-8                  [-1, 400]               0\n            Linear-9                  [-1, 120]          48,120\n             ReLU-10                  [-1, 120]               0\n         Identity-11                  [-1, 120]               0\n         Identity-12                  [-1, 120]               0\n         Identity-13                  [-1, 120]               0\n           Linear-14                    [-1, 5]             605\n================================================================\nTotal params: 51,297\nTrainable params: 51,297\nNon-trainable params: 0\n----------------------------------------------------------------\nInput size (MB): 0.00\nForward/backward pass size (MB): 0.13\nParams size (MB): 0.20\nEstimated Total Size (MB): 0.33\n----------------------------------------------------------------\n\n\nepoc
…
